图神经网络/ChebyNet/model/save/corar/chebynet_sym_norm_lap_2_order_2_layer.pth (torch, 160595 bytes, 4 tensors)

cheb_graph_convs.0.weight f4 [2, 302, 64]
-0.0045003775 0.015970083 0.008314073 0.016607376 -0.011575742 0.011450771 -0.013499812 0.014224159
-0.003657884 0.004722606 -0.003743712 0.011345986 0.015313736 0.010972459 -0.0065314146 -0.011015394
0.015544596 0.011062974 -0.013354723 -0.008166208 -0.013313915 0.00915609 -0.012921157 -0.005228163
0.0043215076 -0.013315899 0.007968763 -0.014324419 -0.009320756 -0.017104192 0.0164938 0.0038897353
-0.0044465465 0.011194296 -0.012335442 -0.0055549927 -0.008878297 0.015811242 0.010786246 -0.012268404
0.011932543 0.008048804 0.013026183 -0.003576799 0.014156414 -0.013144401 -0.0058476734 -0.008712877
0.013652208 0.0056157312 -0.017120248 0.007220842 0.004482684 0.015901556 0.012071651 -0.0070204632
0.012274417 0.00987465 -0.0043704403 -0.015110027 0.010452762 0.0050904406 -0.0077817473 0.007522624
0.01220376 -0.011443949 -0.0040336545 0.0057363976 -0.014289563 -0.014289957 0.016467003 -0.007602755
-0.0030784963 -0.015935974 -0.017133957 -0.01562722 0.0051597566 -0.007085918 0.012575518 -0.0040228316
-0.0137145035 0.0050959038 0.013815104 -0.012906275 0.014365436 -0.011706682 -0.0058850083 -0.015588044
-0.013629517 0.012175358 -0.008478534 0.008165912 0.014286389 -0.005109863 -0.015215774 0.0061597857
0.016586144 -0.012426912 0.0074495645 -0.016950708 0.0058806185 0.011796595 -0.0109493155 0.0047781933
-0.009800191 -0.014912418 -0.016102327 0.0060385047 -0.016295232 0.005419866 0.017189948 -0.00864116
0.01221519 -0.016708653 -0.014723816 -0.0123939505 -0.008874973 -0.016329026 0.006900448 -0.014305612
0.010019499 -0.012676384 -0.010498083 -0.014873521 -0.014937045 -0.014195156 0.0075376304 0.004321196
0.01602888 0.008572358 -0.0038083596 0.012240289 0.003908317 -0.005022134 -0.011976866 -0.012757097
-0.015970444 -0.017150803 0.012057822 -0.011571044 0.012800275 -0.015902163 0.015340125 0.0047054896
-0.011241949 -0.008496463 0.013711364 -0.004172241 -0.0034462926 -0.015699673 -0.00818951 0.0068999887
0.009209479 0.0046160347 -0.0034481166 0.0047202986 -0.006155022 0.01252649 -0.0076622977 -0.01388679
0.01653796 -0.008419206 0.010922285 -0.016317897 0.01301908 -0.011078417 -0.013295168 0.016178267
-0.00839611 0.0060198023 -0.013639247 0.009641947 -0.005983622 0.008161857 0.0058955946 0.0075367154
0.004625801 -0.0074343528 0.015566607 -0.016771218 0.011670025 -0.0062838723 -0.008695422 0.007438234
0.0137539655 -0.0062199016 -0.0073099085 0.008733761 -0.011904524 -0.009230338 0.008729118 0.007854549
0.0145975 -0.0038180293 0.009287282 0.008389365 0.010099107 -0.010429264 0.011728132 0.012015565
0.0034660706 0.007345036 0.016057199 0.012801783 0.009641546 -0.0143364025 0.0055986624 -0.016438296
0.007655232 0.012427799 0.014586137 -0.0066782054 0.0036402703 -0.014325457 -0.011134958 0.016957903
-0.008957203 -0.011862559 0.012975665 0.007259752 -0.014655322 0.015249947 0.0067292363 -0.0114418585
-0.017155483 -0.005185301 -0.004549987 -0.00737801 -0.015015235 -0.017098907 0.004156535 0.015363598
-0.006546492 -0.0039470256 -0.0062282723 -0.008178806 -0.010070012 0.0045274594 -0.016162457 -0.016727773
0.012943965 -0.013531097 0.008552241 -0.014139276 0.008689156 -0.015062169 0.005299922 -0.0076139504
0.007861919 -0.0055583525 0.0076923105 -0.015276212 0.008730737 -0.013486512 -0.0122000715 0.0031521078
00000000: e777 93bb b1d3 823c c037 083c 310c 883c
00000010: 2ea8 3dbc 049c 3b3c 512e 5dbc 720c 693c
00000020: 1cb9 6fbb 17c0 9a3b 1159 75bb 84e4 393c
00000030: 77e6 7a3c d4c5 333c 7a05 d6bb e979 34bc
00000040: c3ae 7e3c 7a41 353c c5cd 5abc 8fcb 05bc
00000050: 9b22 5abc 6d03 163c 43b3 53bc 0351 abbb
00000060: 6f9b 8d3b ee2a 5abc 6a8f 023c f8b0 6abc
00000070: 16b6 18bc 171e 8cbc 011e 873c eeea 7e3b
00000080: 56b4 91bb 4868 373c 981a 4abc a806 b6bb
00000090: 4776 11bc 9486 813c cbb8 303c 6a01 49bc
000000a0: b680 433c 21df 033c c56b 553c bb68 6abb
000000b0: 4ef0 673c 9d5b 57bc d79d bfbb 74c0 0ebc
000000c0: 83ad 5f3c 2b04 b83b c33f 8cbc d09c ec3b
000000d0: 7be3 923b fb43 823c 2dc8 453c ea0b e6bb
000000e0: a31a 493c 49c9 213c e935 8fbb 0c90 77bc
000000f0: 1042 2b3c b6cd a63b 07fe febb 5880 f63b
00000100: 48f2 473c 677f 3bbc bf2c 84bb 64f8 bb3b
00000110: c51e 6abc 6c20 6abc cfe5 863c 8820 f9bb
00000120: 99c0 49bb 298c 82bc 835c 8cbc a804 80bc
00000130: 2d13 a93b fd30 e8bb 8c09 4e3c f5d1 83bb
00000140: ccb2 60bc 8afb a63b bf58 623c d774 53bc
00000150: 015d 6b3c 62cd 3fbc 07d7 c0bb ff64 7fbc
00000160: 564e 5fbc 277b 473c 8de9 0abc 51ca 053c
00000170: 7511 6a3c a370 a7bb 954b 79bc 07d8 c93b
00000180: aadf 873c 3f9a 4bbc 7a1b f43b 36dc 8abc
00000190: 34b2 c03b 8146 413c c264 33bc 6492 9c3b
000001a0: fb90 20bc 3753 74bc 07e9 83bc a6de c53b
000001b0: 947d 85bc 2299 b13b efd1 8c3c a793 0dbc
000001c0: 3822 483c 96e0 88bc 293c 71bc ff0f 4bbc
000001d0: 5668 11bc 73c4 85bc 271d e23b 1662 6abc
000001e0: d328 243c 9cb0 4fbc 2700 2cbc 12b0 73bc
000001f0: 82ba 74bc cd92 68bc 3afe f63b d298 8d3b
00000200: ff4e 833c 1373 0c3c ac95 79bb 7e8b 483c
00000210: 5711 803b b790 a4bb 9e3a 44bc 2503 51bc
00000220: 73d4 82bc d77f 8cbc 2c8e 453c 7a94 3dbc
00000230: 3fb8 513c 4145 82bc 2655 7b3c 8230 9a3b
00000240: 2730 38bc c034 0bbc a1a5 603c 4bb7 88bb
00000250: 32db 61bb 9a9c 80bc 4b2d 06bc 4d19 e23b
00000260: 5be3 163c 1b42 973b ccf9 61bb bcac 9a3b
00000270: 11b0 c9bb e83b 4d3c 0314 fbbb 6b85 63bc
00000280: 9e7a 873c b6f0 09bc 62f3 323c 1cad 85bc
00000290: fb4d 553c 4082 35bc fad3 59bc 4988 843c
000002a0: d68f 09bc c341 c53b 2677 5fbc 42f9 1d3c
000002b0: 4212 c4bb 4fb9 053c d52f c13b 8df6 f63b
000002c0: 0894 973b df9b f3bb 150b 7f3c cb63 89bc
000002d0: a233 3f3c f1e8 cdbb 3e77 0ebc 6ebc f33b
000002e0: 5058 613c 51d0 cbbb f587 efbb 0c18 0f3c
000002f0: 310b 43bc d83a 17bc 9304 0f3c 5eb0 003c
00000300: 5a2a 6f3c e737 7abb af29 183c 8c73 093c
00000310: ba76 253c 81df 2abc 5a27 403c efdc 443c
00000320: 0427 633b a1ae f03b 638a 833c 92be 513c
00000330: 93f7 1d3c 3be3 6abc fc74 b73b 9ba9 86bc
00000340: bed8 fa3b f89d 4b3c b1fa 6e3c d9d4 dabb
00000350: 9a91 6e3b 52b5 6abc 666f 36bc 4deb 8a3c
00000360: 3bc1 12bc 2e5b 42bc e297 543c 37e3 ed3b
00000370: e01c 70bc eada 793c ed80 dc3b a276 3bbc
00000380: a889 8cbc 75e9 a9bb 0f18 95bb 3cc3 f1bb
00000390: 7602 76bc 0213 8cbc 8b33 883b 9ab7 7b3c
000003a0: f583 d6bb 0d56 81bb 8916 ccbb 6600 06bc
000003b0: b1fc 24bc 155b 943b 2167 84bc af08 89bc
000003c0: ed12 543c 89b1 5dbc b31e 0c3c 6ca8 67bc
000003d0: f65c 0e3c 51c7 76bc f8aa ad3b 727e f9bb
000003e0: 47cf 003c d722 b6bb c70f fc3b 1449 7abc
000003f0: 5d0b 0f3c 88f6 5cbc cfe2 47bc 9893 4e3b

cheb_graph_convs.0.bias f4 [64]
-0.012100104 -0.008183095 -0.012624888 -0.01342389 0.010744703 0.010743796 -0.016626455 -0.013561605
-0.01267416 -0.0102406535 -0.0036808716 -0.014856709 0.005949163 0.01687557 0.011200554 0.0069494923
-0.009587395 -0.013495706 0.010141877 -0.0136616435 0.01050428 0.010846129 0.016770935 -0.006246092
0.010939326 0.01566831 -0.0028295526 -0.013836955 -0.015236775 -0.009948601 -0.01274526 0.012725116
0.015863098 0.011271714 0.009163598 0.013171159 0.0043878686 0.013741564 -0.012444955 0.005002367
-0.011103651 0.016955802 -0.012989612 0.004867295 -0.005414356 0.009513527 0.007957919 0.014566015
-0.0068515516 -0.0075944974 0.016912159 -0.0162558 -0.012494193 -0.005016957 -0.016064722 0.00884224
0.012398749 -0.009522581 0.011450369 0.006099023 -0.0078112097 -0.014754814 0.010972271 -0.010962159
00000000: 843f 46bc 6312 06bc 9ed8 4ebc e0ef 5bbc
00000010: 8d0a 303c bf06 303c 3434 88bc 7e31 5ebc
00000020: 48a7 4fbc 6ac8 27bc c73a 71bb 8e69 73bc
00000030: 32f1 c23b a33e 8a3c 8782 373c 91b8 e33b
00000040: 7314 1dbc 181d 5dbc 1e2a 263c 16d5 5fbc
00000050: 251a 2c3c f6b3 313c 3363 893c 04ac ccbb
00000060: dc3a 333c d45a 803c 0470 39bb 65b4 62bc
00000070: aba3 79bc 75ff 22bc 7fd1 50bc 017d 503c
00000080: 54f3 813c ffac 383c ea22 163c d8cb 573c
00000090: 1cc8 8f3b 4c24 613c ede5 4bbc e5ea a33b
000000a0: 16ec 35bc e5e6 8a3c 62d2 54bc d47d 9f3b
000000b0: e96a b1bb a0de 1b3c ee61 023c 4ca6 6e3c
000000c0: fb82 e0bb 43db f8bb 5e8b 8a3c e22a 85bc
000000d0: 72b4 4cbc 4965 a4bb 2a9a 83bc 0bdf 103c
000000e0: 1f24 4b3c 9904 1cbc 549a 3b3c 50da c73b
000000f0: 2df5 ffbb 2dbe 71bc 0ac5 333c a19a 33bc

cheb_graph_convs.1.weight f4 [2, 64, 7]
0.02658517 -0.033633433 -0.04345156 0.031048452 0.056460317 0.0085133305 0.02264864 0.0026645826
0.033196114 -0.035571303 -0.033081237 0.016419223 -0.031064358 0.040408786 -0.025674775 0.022345327
-0.030129455 -0.03826417 -0.032087877 0.0027302874 0.037060894 0.030551355 -0.047989625 -0.036530092
0.010169042 0.015558585 0.044938765 -0.027526246 -0.042171996 0.048454314 0.028310675 0.012082873
-0.05653455 0.036103997 0.03322676 -0.028416084 -0.0014302833 0.009353004 0.05096333 -0.008205217
0.0402173 0.011759074 -0.012854232 -0.037169755 0.020339113 -0.036373395 0.0074792556 0.01763321
-0.02236975 -0.019482397 0.035415463 -0.035956703 0.028879853 0.027920378 0.053556457 0.053853646
0.0036802376 0.026070004 -0.051970933 -0.006026469 -0.042345844 -0.025238555 0.034994557 -0.014308077
-0.00035975114 -0.03375576 -0.014682662 0.0062789684 0.03272002 0.0021529628 -0.013686824 -0.015782235
-0.019940795 -0.017028522 0.025881996 -0.030255577 0.0071309498 0.008736458 -0.038968585 -0.01539337
-0.0028931184 -0.022517582 0.03684754 -0.013548098 -0.050999023 -0.041714195 -0.009632725 0.054227725
-0.031653237 0.014941122 -0.009219465 0.008399631 -0.0025153274 -0.028030362 0.008848115 0.00041248114
0.030614091 0.04747935 0.018331736 -0.017484093 -0.009917787 -0.046094876 0.027690846 0.020607382
-0.010367852 -0.05447156 -0.017957348 0.013857069 0.045404565 -0.03957311 -0.021320807 0.019552447
0.034739237 -0.0062334607 0.0054281075 0.033923768 -0.0089137815 0.011201437 -0.016653003 0.028719485
0.029747088 0.007612021 0.027751075 -0.010683934 -0.02317377 -0.029183567 0.053651974 0.040768128
0.0014876963 -0.050946523 0.037102573 0.02655963 -0.04983459 0.02430743 0.0075316215 0.038535494
-0.01268045 -0.027684385 -0.012978629 -0.0047980025 -0.037170917 0.03764323 0.053701878 0.036260687
0.021556184 -0.017171888 0.007063265 -0.026902217 0.012594342 -0.018292202 -0.004052041 -0.045626935
-0.009122021 0.013985737 0.05283209 0.0071888384 0.017086728 -0.013130889 -0.00844982 -0.0154328775
-0.004366748 -0.029936012 0.03492482 0.034968104 0.010008176 -0.0014824437 0.008616659 -0.04504021
-0.038008474 -0.032520216 -0.011738286 -0.033757105 0.019937854 -0.011527185 -0.002733242 0.03186541
-0.04052057 -0.015761618 -0.026052304 -0.02033744 -0.028156396 0.038894754 -0.004869216 -0.007739688
0.0040317792 0.0065732542 0.0067741694 0.017371347 0.016663434 0.0028777807 0.028722212 0.024209397
-0.018419718 -0.02084449 -0.013616784 0.011311653 -0.0067869616 -0.029555857 -0.01495375 0.038050223
-0.027502092 -0.047831677 0.02505618 0.00069385977 -0.0021567403 -0.036348995 0.00031024605 0.03653803
-0.014562034 -0.023692925 -0.037467133 0.0028738694 -0.0030301067 0.031360507 -0.017853476 -0.028688751
0.00216026 -0.04584544 0.0155139165 -0.036500305 -0.026647955 0.0019581656 0.011314855 -0.025432507
-0.013993548 -0.012000269 -0.012040657 -0.023325406 0.032761022 -0.034003656 -0.046101727 -0.032258954
0.03522313 -0.00794688 -0.011536377 0.052865107 0.023596663 -0.002587693 0.04441077 -0.014830056
0.047532015 -0.038969383 0.0056015756 -0.048385907 -0.009128295 0.009361613 -0.024978016 -0.008402167
0.007625607 0.055292096 0.016628452 0.019433396 0.017671712 0.038289294 0.015204162 0.0029533326
00000000: 24c9 d93c 36c3 09bd 43fa 31bd 5359 fe3c
00000010: ef42 673d 7f7b 0b3c a489 b93c 47a0 2e3b
00000020: a6f8 073d 37b3 11bd 3180 07bd 9b81 863c
00000030: ae7a febc af83 253d e853 d2bc 8c0d b73c
00000040: 0cd2 f6bc e4ba 1cbd 946e 03bd 9fee 323b
00000050: 2acd 173d d646 fa3c c590 44bd 94a0 15bd
00000060: 0e9c 263c 6fe9 7e3c b611 383d b97e e1bc
00000070: 8bbc 2cbd 0878 463d caeb e73c 3ef7 453c
00000080: c690 67bd c9e1 133d c818 083d d9c8 e8bc
00000090: 5878 bbba 583d 193c edbe 503d 2d6f 06bc
000000a0: e5ba 243d 22a9 403c 8f9a 52bc 503f 18bd
000000b0: 369e a63c 45fc 14bd 8b14 f53b 8673 903c
000000c0: c440 b7bc 8c99 9fbc ce0f 113d 5647 13bd
000000d0: 7195 ec3c 47b9 e43c 045e 5b3d a495 5c3d
000000e0: 2430 713b c390 d53c 79df 54bd b079 c5bb
000000f0: d672 2dbd 16c1 cebc 7456 0f3d 6d6c 6abc
00000100: fb9c bcb9 7b43 0abd 8c8f 70bc cebf cd3b
00000110: 6d05 063d b918 0d3b b33e 60bc bf49 81bc
00000120: e15a a3bc 667f 8bbc 7b06 d43c 8bda f7bc
00000130: beaa e93b 5c23 0f3c 869d 1fbd 7934 7cbc
00000140: 799a 3dbb cb76 b8bc 72ed 163d d7f8 5dbc
00000150: 5ae4 50bd 81dc 2abd 94d2 1dbc e41d 5e3d
00000160: d3a6 01bd 9ccb 743c 3d0d 17bc 9b9e 093c
00000170: 31d8 24bb ee9f e5bc aff7 103c 4842 d839
00000180: 67ca fa3c b579 423d 702c 963c cd3a 8fbc
00000190: 377e 22bc fbcd 3cbd ead7 e23c d0d0 a83c
000001a0: ecdd 29bc 921d 5fbd 4a1b 93bc c308 633c
000001b0: 23fa 393d 6a17 22bd f9a8 aebc 742c a03c
000001c0: bb4a 0e3d 0f42 ccbb 44de b13b a6f3 0a3d
000001d0: 1c0b 12bc 3b86 373c e16b 88bc 2045 eb3c
000001e0: 2ab0 f33c 436e f93b 3956 e33c ab0b 2fbc
000001f0: ebd6 bdbc 6012 efbc 2cc2 5b3d 7bfc 263d
00000200: cefe c23a 4dad 50bd def8 173d 9593 d93c
00000210: 5b1f 4cbd 6020 c73c d2cb f63b 65d7 1d3d
00000220: aac1 4fbc 5dca e2bc 51a4 54bc 9038 9dbb
00000230: 8840 18bd ca2f 1a3d 80f6 5b3d 1686 143d
00000240: 9896 b03c 0fac 8cbc f672 e73b 0a62 dcbc
00000250: 8058 4e3c 87d9 95bc fcc6 84bb 4fe3 3abd
00000260: 8774 15bc 6f24 653c 7666 583d 5990 eb3b
00000270: 77f9 8b3c f122 57bc 1d71 0abc 2eda 7cbc
00000280: f016 8fbb 5e3c f5bc 540d 0f3d b73a 0f3d
00000290: 55f9 233c 8e4e c2ba e32c 0d3c 157c 38bd
000002a0: c6ae 1bbd eb33 05bd f151 40bc e444 0abd
000002b0: b654 a33c 85dc 3cbc 3120 33bb 4e85 023d
000002c0: e6f8 25bd 821e 81bc a46b d5bc b49a a6bc
000002d0: 3ea8 e6bc 1b50 1f3d f28d 9fbb 359d fdbb
000002e0: 041d 843b 7464 d73b daf9 dd3b 5b4e 8e3c
000002f0: c181 883c 2699 3c3b d84a eb3c c952 c63c
00000300: f3e4 96bc 10c2 aabc ee18 5fbc 8354 393c
00000310: 2965 debb 201f f2bc 9300 75bc 8dda 1b3d
00000320: 114c e1bc 26eb 43bd 9e42 cd3c 24e4 353a
00000330: 1958 0dbb afe2 14bd 85a8 a239 e7a8 153d
00000340: 9995 6ebc aa17 c2bc 2377 19bd 8757 3c3b
00000350: c194 46bb e073 003d 7441 92bc ac04 ebbc
00000360: 2693 0d3b 6ec8 3bbd 152e 7e3c 5881 15bd
00000370: d04c dabc 9154 003b f161 393c d557 d0bc
00000380: 3245 65bc c79c 44bc 2d46 45bc ec14 bfbc
00000390: 6c30 063d 6b47 0bbd 2ad5 3cbd f721 04bd
000003a0: 2146 103d a133 02bc 1203 3dbc 1589 583d
000003b0: ca4d c13c 4996 29bb 11e8 353d c3f9 72bc
000003c0: eeb0 423d 5c9e 1fbd 6c8d b73b 4d30 46bd
000003d0: d88e 15bc 7361 193c b29e ccbc 3ea9 09bc
000003e0: 3ae0 f93b f779 623d 6438 883c c932 9f3c
000003f0: 44c4 903c 3cd5 1c3d e11a 793c b38c 413b

cheb_graph_convs.1.bias f4 [7]
0.012900954 0.002429824 0.020088486 -0.019821964 -0.01990876 -0.03531557 0.028887479
00000000: 865e 533c af3d 1f3b 9c90 a43c ac61 a2bc
00000010: b217 a3bc 0fa7 10bd 6fa5 ec3c
